app/src/main/res/raw/model_facial_expression_quant.tflite (tflite, 98712 bytes, 23 tensors)

model_1/conv2d_1/Conv2D/ReadVariableOp i1 [1, 3, 3, 8]
0	0xe8	-24
1	0x46	70
2	0x45	69
3	0xfe	-2
4	0x20	32
5	0x5c	92
6	0xea	-22
7	0xb3	-77
8	0x81	-127
9	0x36	54
10	0x3b	59
11	0xf0	-16
12	0x34	52
13	0x3f	63
14	0x0d	13
15	0xae	-82
16	0x92	-110
17	0x21	33
18	0xf7	-9
19	0xf2	-14
20	0x42	66
21	0x48	72
22	0xfa	-6
23	0xd8	-40
24	0x96	-106
25	0xce	-50
26	0x7a	122
27	0x16	22
28	0xd4	-44
29	0x7f	127
30	0x18	24
31	0xb2	-78
32	0x36	54
33	0x8f	-113
34	0x20	32
35	0xb8	-72
36	0xfc	-4
37	0x27	39
38	0x6e	110
39	0x05	5
40	0xd1	-47
41	0x9f	-97
42	0xb1	-79
43	0xc3	-61
44	0x44	68
45	0x16	22
46	0x5e	94
47	0x27	39
48	0xfa	-6
49	0xc1	-63
50	0x15	21
51	0x7f	127
52	0x81	-127
53	0xc1	-63
54	0x37	55
55	0x0c	12
56	0xb0	-80
57	0x81	-127
58	0xac	-84
59	0x48	72
60	0xae	-82
61	0x51	81
62	0x7f	127
63	0x7f	127
64	0x94	-108
65	0xa7	-89
66	0x81	-127
67	0xe0	-32
68	0x21	33
69	0x48	72
70	0x63	99
71	0x64	100

model_1/conv2d_2/Conv2D/ReadVariableOp i1 [8, 3, 3, 8]
0	0x00	0
1	0x1b	27
2	0x01	1
3	0xed	-19
4	0xc9	-55
5	0x00	0
6	0x04	4
7	0xc2	-62
8	0x00	0
9	0x20	32
10	0xe6	-26
11	0x91	-111
12	0x24	36
13	0x00	0
14	0x10	16
15	0x9b	-101
16	0x00	0
17	0x1c	28
18	0xde	-34
19	0xb1	-79
20	0x2a	42
21	0x00	0
22	0x16	22
23	0xd1	-47
24	0x00	0
25	0x2f	47
26	0xde	-34
27	0x68	104
28	0xb6	-74
29	0x00	0
30	0xf8	-8
31	0xa7	-89
32	0x00	0
33	0x2e	46
34	0xbe	-66
35	0xfc	-4
36	0xfe	-2
37	0x00	0
38	0xfc	-4
39	0xbf	-65
40	0x00	0
41	0x27	39
42	0xd0	-48
43	0xc5	-59
44	0x33	51
45	0x00	0
46	0x02	2
47	0x0f	15
48	0x00	0
49	0xf4	-12
50	0xb8	-72
51	0x7a	122
52	0xba	-70
53	0x00	0
54	0xee	-18
55	0x52	82
56	0x00	0
57	0xea	-22
58	0xc2	-62
59	0x7f	127
60	0x91	-111
61	0x00	0
62	0xea	-22
63	0x62	98
64	0x00	0
65	0xed	-19
66	0xee	-18
67	0x27	39
68	0xc1	-63
69	0x00	0
70	0xe4	-28
71	0x0b	11
72	0x00	0
73	0xed	-19
74	0x3e	62
75	0xf2	-14
76	0xf6	-10
77	0x00	0
78	0x2a	42
79	0xcc	-52
80	0x00	0
81	0xef	-17
82	0x4d	77
83	0x19	25
84	0xf6	-10
85	0x00	0
86	0x1f	31
87	0xaf	-81
88	0x00	0
89	0xf2	-14
90	0x39	57
91	0x10	16
92	0x1d	29
93	0x00	0
94	0x19	25
95	0xb3	-77
96	0x00	0
97	0xe3	-29
98	0x4c	76
99	0xf1	-15
100	0xec	-20
101	0x00	0
102	0x1d	29
103	0xa2	-94
104	0x00	0
105	0xf0	-16
106	0x55	85
107	0xfa	-6
108	0x24	36
109	0x00	0
110	0x16	22
111	0xa6	-90
112	0x00	0
113	0xf3	-13
114	0x0f	15
115	0xe9	-23
116	0x5a	90
117	0x00	0
118	0x17	23
119	0xc5	-59
120	0x00	0
121	0xfa	-6
122	0x43	67
123	0xdd	-35
124	0x26	38
125	0x00	0
126	0x13	19
127	0x81	-127
128	0x00	0
129	0xfb	-5
130	0x15	21
131	0xfe	-2
132	0x3e	62
133	0x00	0
134	0x10	16
135	0xb6	-74
136	0x00	0
137	0xf6	-10
138	0xe5	-27
139	0xf9	-7
140	0x3c	60
141	0x00	0
142	0x12	18
143	0xdf	-33
144	0x00	0
145	0x5d	93
146	0x09	9
147	0xf8	-8
148	0xda	-38
149	0x00	0
150	0xe7	-25
151	0xfa	-6
152	0x00	0
153	0x60	96
154	0x0f	15
155	0x01	1
156	0xec	-20
157	0x00	0
158	0xe5	-27
159	0xf9	-7
160	0x00	0
161	0x67	103
162	0xf9	-7
163	0xda	-38
164	0x04	4
165	0x00	0
166	0xe6	-26
167	0xe2	-30
168	0x00	0
169	0x60	96
170	0x30	48
171	0x1b	27
172	0xdc	-36
173	0x00	0
174	0xe4	-28
175	0xfe	-2
176	0x00	0
177	0x60	96
178	0x37	55
179	0xf4	-12
180	0x15	21
181	0x00	0
182	0xe8	-24
183	0xe4	-28
184	0x00	0
185	0x5f	95
186	0xfd	-3
187	0xce	-50
188	0x37	55
189	0x00	0
190	0xf0	-16
191	0xfb	-5
192	0x00	0
193	0x7f	127
194	0x2d	45
195	0x31	49
196	0xfb	-5
197	0x00	0
198	0xdf	-33
199	0xd0	-48
200	0x00	0
201	0x6d	109
202	0x21	33
203	0xff	-1
204	0x2e	46
205	0x00	0
206	0xe3	-29
207	0xf0	-16
208	0x00	0
209	0x6d	109
210	0xff	-1
211	0xf7	-9
212	0x35	53
213	0x00	0
214	0xea	-22
215	0x0d	13
216	0x00	0
217	0x10	16
218	0xe7	-25
219	0x17	23
220	0xbd	-67
221	0x00	0
222	0x09	9
223	0x1f	31
224	0x00	0
225	0x18	24
226	0x19	25
227	0x08	8
228	0xc9	-55
229	0x00	0
230	0x06	6
231	0xfd	-3
232	0x00	0
233	0x09	9
234	0x04	4
235	0xfa	-6
236	0xf0	-16
237	0x00	0
238	0xf3	-13
239	0x0d	13
240	0x00	0
241	0x1e	30
242	0x1d	29
243	0x72	114
244	0xad	-83
245	0x00	0
246	0x00	0
247	0xb2	-78
248	0x00	0
249	0x10	16
250	0xf1	-15
251	0x88	-120
252	0x2a	42
253	0x00	0
254	0xfa	-6
255	0x16	22

model_1/conv2d_3/Conv2D/ReadVariableOp i1 [16, 1, 1, 8]
0	0x1e	30
1	0xbf	-65
2	0xd3	-45
3	0x13	19
4	0xe6	-26
5	0xf0	-16
6	0xf8	-8
7	0x7f	127
8	0xd9	-39
9	0x7f	127
10	0xaf	-81
11	0xe4	-28
12	0x2d	45
13	0x16	22
14	0x66	102
15	0x8e	-114
16	0x0c	12
17	0xac	-84
18	0x93	-109
19	0xfa	-6
20	0xe6	-26
21	0xc9	-55
22	0x10	16
23	0x7f	127
24	0x1c	28
25	0x18	24
26	0x1e	30
27	0xe3	-29
28	0x13	19
29	0xe4	-28
30	0x7f	127
31	0xe6	-26
32	0x22	34
33	0x2c	44
34	0x66	102
35	0xef	-17
36	0x7f	127
37	0xdc	-36
38	0xd3	-45
39	0xb9	-71
40	0xf4	-12
41	0xed	-19
42	0x81	-127
43	0x26	38
44	0x96	-106
45	0x24	36
46	0x2c	44
47	0x14	20
48	0x8d	-115
49	0xed	-19
50	0x81	-127
51	0x05	5
52	0x35	53
53	0x25	37
54	0xce	-50
55	0xc3	-61
56	0x38	56
57	0x2d	45
58	0x7f	127
59	0x19	25
60	0x73	115
61	0xdc	-36
62	0xfc	-4
63	0x28	40
64	0x06	6
65	0x4f	79
66	0x36	54
67	0x02	2
68	0x7f	127
69	0x34	52
70	0x17	23
71	0xd9	-39
72	0x1a	26
73	0xb0	-80
74	0xc6	-58
75	0xf1	-15
76	0x81	-127
77	0x1e	30
78	0x0f	15
79	0xcc	-52
80	0xff	-1
81	0xd1	-47
82	0x7f	127
83	0xf7	-9
84	0xc0	-64
85	0x34	52
86	0x04	4
87	0x31	49
88	0xb1	-79
89	0x57	87
90	0xba	-70
91	0x23	35
92	0xbc	-68
93	0xa0	-96
94	0x4c	76
95	0x81	-127
96	0x55	85
97	0x98	-104
98	0x7f	127
99	0x2c	44
100	0xf1	-15
101	0x99	-103
102	0xe2	-30
103	0x57	87
104	0x4f	79
105	0x7f	127
106	0x10	16
107	0x2c	44
108	0xf6	-10
109	0x64	100
110	0x04	4
111	0x14	20
112	0xe2	-30
113	0x7f	127
114	0xb1	-79
115	0x03	3
116	0xe9	-23
117	0x46	70
118	0x65	101
119	0xd0	-48
120	0x13	19
121	0xfd	-3
122	0x7f	127
123	0x05	5
124	0x13	19
125	0xf3	-13
126	0xaa	-86
127	0x40	64

model_1/conv2d_4/Conv2D/ReadVariableOp i1 [32, 1, 1, 16]
0	0x18	24
1	0x98	-104
2	0xe9	-23
3	0xe9	-23
4	0x2d	45
5	0xf5	-11
6	0xbb	-69
7	0x81	-127
8	0xe3	-29
9	0x25	37
10	0x88	-120
11	0xfe	-2
12	0xe9	-23
13	0xde	-34
14	0x03	3
15	0x05	5
16	0x0d	13
17	0x01	1
18	0xf0	-16
19	0xeb	-21
20	0x0c	12
21	0xfb	-5
22	0x3e	62
23	0x45	69
24	0x27	39
25	0x14	20
26	0x81	-127
27	0x01	1
28	0x5b	91
29	0x31	49
30	0xdd	-35
31	0x10	16
32	0xc6	-58
33	0x28	40
34	0x35	53
35	0x31	49
36	0xda	-38
37	0x5a	90
38	0x45	69
39	0x02	2
40	0xed	-19
41	0xfe	-2
42	0x86	-122
43	0x56	86
44	0x81	-127
45	0x74	116
46	0x04	4
47	0xe6	-26
48	0xc1	-63
49	0xd9	-39
50	0x02	2
51	0xe5	-27
52	0x07	7
53	0x1c	28
54	0x60	96
55	0xec	-20
56	0x16	22
57	0x4d	77
58	0x81	-127
59	0x6a	106
60	0x48	72
61	0x68	104
62	0x96	-106
63	0x24	36
64	0x7f	127
65	0x06	6
66	0x46	70
67	0xb5	-75
68	0x78	120
69	0x11	17
70	0xb1	-79
71	0x19	25
72	0x13	19
73	0x1a	26
74	0x01	1
75	0xd4	-44
76	0xcb	-53
77	0xa3	-93
78	0xf3	-13
79	0x4e	78
80	0x07	7
81	0x61	97
82	0xd4	-44
83	0x81	-127
84	0xf6	-10
85	0xa3	-93
86	0xd5	-43
87	0x00	0
88	0xec	-20
89	0x36	54
90	0xdb	-37
91	0xed	-19
92	0xfc	-4
93	0xca	-54
94	0x4f	79
95	0x8f	-113
96	0x5e	94
97	0x46	70
98	0x7c	124
99	0x14	20
100	0xc6	-58
101	0x0f	15
102	0xd4	-44
103	0x4f	79
104	0x46	70
105	0x98	-104
106	0xf6	-10
107	0xbf	-65
108	0xee	-18
109	0x81	-127
110	0x79	121
111	0x1a	26
112	0x0d	13
113	0x89	-119
114	0xf6	-10
115	0x1c	28
116	0x30	48
117	0x35	53
118	0xd3	-45
119	0x81	-127
120	0x1e	30
121	0xe2	-30
122	0xf4	-12
123	0x58	88
124	0xa8	-88
125	0x1c	28
126	0xc2	-62
127	0x4b	75
128	0x79	121
129	0xb6	-74
130	0x0f	15
131	0x29	41
132	0x36	54
133	0x7f	127
134	0x09	9
135	0xc0	-64
136	0x55	85
137	0x1d	29
138	0x22	34
139	0x36	54
140	0xf7	-9
141	0x0c	12
142	0x07	7
143	0x59	89
144	0xab	-85
145	0x35	53
146	0xf7	-9
147	0xdd	-35
148	0x9c	-100
149	0xb6	-74
150	0x87	-121
151	0xc2	-62
152	0xb5	-75
153	0xc8	-56
154	0xc8	-56
155	0x4b	75
156	0xa6	-90
157	0x2b	43
158	0x18	24
159	0x81	-127
160	0x2a	42
161	0xe1	-31
162	0x55	85
163	0xbc	-68
164	0xcb	-53
165	0xff	-1
166	0xac	-84
167	0xc1	-63
168	0xc8	-56
169	0x11	17
170	0x21	33
171	0xb3	-77
172	0xd3	-45
173	0x81	-127
174	0x9d	-99
175	0xe5	-27
176	0xe8	-24
177	0x30	48
178	0xbf	-65
179	0x4b	75
180	0xe5	-27
181	0x28	40
182	0xdc	-36
183	0xd1	-47
184	0x5b	91
185	0x3c	60
186	0x13	19
187	0x7f	127
188	0xf5	-11
189	0x26	38
190	0xc0	-64
191	0x35	53
192	0x1c	28
193	0x05	5
194	0xd2	-46
195	0xb3	-77
196	0xf4	-12
197	0xdd	-35
198	0x01	1
199	0xfa	-6
200	0x10	16
201	0x09	9
202	0x0f	15
203	0x81	-127
204	0x31	49
205	0xc1	-63
206	0x01	1
207	0x28	40
208	0x07	7
209	0x24	36
210	0xf7	-9
211	0x7f	127
212	0xc9	-55
213	0xfd	-3
214	0x2d	45
215	0x27	39
216	0x18	24
217	0x25	37
218	0x08	8
219	0x37	55
220	0xf9	-7
221	0x2c	44
222	0xf3	-13
223	0x20	32
224	0x4f	79
225	0xf2	-14
226	0x48	72
227	0xd5	-43
228	0x4d	77
229	0xce	-50
230	0x0a	10
231	0x19	25
232	0x4d	77
233	0x0f	15
234	0xd7	-41
235	0x1b	27
236	0x52	82
237	0xe3	-29
238	0xf4	-12
239	0x7f	127
240	0x11	17
241	0x81	-127
242	0xfb	-5
243	0x92	-110
244	0x2c	44
245	0xd7	-41
246	0xe6	-26
247	0x89	-119
248	0x9f	-97
249	0x24	36
250	0xcf	-49
251	0x5a	90
252	0xee	-18
253	0x15	21
254	0xe7	-25
255	0xe9	-23

model_1/conv2d_5/Conv2D/ReadVariableOp i1 [64, 1, 1, 32]
0	0xe6	-26
1	0x1a	26
2	0x39	57
3	0xe3	-29
4	0x36	54
5	0x03	3
6	0xfb	-5
7	0x40	64
8	0xf6	-10
9	0x14	20
10	0x3e	62
11	0x37	55
12	0x09	9
13	0xec	-20
14	0x2c	44
15	0xeb	-21
16	0xd5	-43
17	0x2f	47
18	0xca	-54
19	0x1c	28
20	0x2f	47
21	0x02	2
22	0xe3	-29
23	0xf3	-13
24	0xf8	-8
25	0x2d	45
26	0xcb	-53
27	0x7f	127
28	0x03	3
29	0xd4	-44
30	0x10	16
31	0xf7	-9
32	0x4f	79
33	0xd2	-46
34	0x2a	42
35	0xd7	-41
36	0x1e	30
37	0xda	-38
38	0x14	20
39	0x03	3
40	0xe2	-30
41	0xf1	-15
42	0xe0	-32
43	0x14	20
44	0xb5	-75
45	0xdd	-35
46	0xeb	-21
47	0x0a	10
48	0x05	5
49	0x21	33
50	0x2e	46
51	0x02	2
52	0x2f	47
53	0xd4	-44
54	0xdf	-33
55	0x81	-127
56	0x04	4
57	0xfa	-6
58	0x28	40
59	0xd8	-40
60	0xca	-54
61	0xd1	-47
62	0x00	0
63	0xcc	-52
64	0x4f	79
65	0x33	51
66	0x5e	94
67	0x0b	11
68	0x20	32
69	0x21	33
70	0x06	6
71	0x39	57
72	0x70	112
73	0x2a	42
74	0x2b	43
75	0x1c	28
76	0x1a	26
77	0xd8	-40
78	0x2e	46
79	0x52	82
80	0x29	41
81	0x40	64
82	0x2f	47
83	0xd7	-41
84	0x02	2
85	0x4b	75
86	0xc5	-59
87	0x3a	58
88	0x0b	11
89	0xd4	-44
90	0x73	115
91	0x20	32
92	0x21	33
93	0x1d	29
94	0x41	65
95	0x81	-127
96	0x2c	44
97	0x1b	27
98	0xcf	-49
99	0x53	83
100	0x26	38
101	0xa2	-94
102	0x4f	79
103	0x38	56
104	0x7f	127
105	0xad	-83
106	0x28	40
107	0x30	48
108	0xfe	-2
109	0xdc	-36
110	0xdd	-35
111	0xb9	-71
112	0xe6	-26
113	0xbe	-66
114	0x33	51
115	0x23	35
116	0x71	113
117	0xc4	-60
118	0xb5	-75
119	0x32	50
120	0xdb	-37
121	0x2e	46
122	0xcd	-51
123	0x4a	74
124	0x25	37
125	0x3f	63
126	0xfd	-3
127	0x59	89
128	0xf2	-14
129	0x71	113
130	0xfc	-4
131	0xec	-20
132	0xe1	-31
133	0xee	-18
134	0x7f	127
135	0xea	-22
136	0x55	85
137	0x31	49
138	0xd0	-48
139	0x4c	76
140	0xd5	-43
141	0x42	66
142	0x51	81
143	0x30	48
144	0x4f	79
145	0xff	-1
146	0x1c	28
147	0x01	1
148	0xd3	-45
149	0x08	8
150	0xed	-19
151	0xba	-70
152	0x42	66
153	0x38	56
154	0x49	73
155	0xcb	-53
156	0xee	-18
157	0xd5	-43
158	0x0c	12
159	0x3c	60
160	0xfd	-3
161	0xe6	-26
162	0x2d	45
163	0x05	5
164	0x15	21
165	0x25	37
166	0x15	21
167	0xe2	-30
168	0xfb	-5
169	0xf3	-13
170	0xea	-22
171	0xb0	-80
172	0xdf	-33
173	0x19	25
174	0xe9	-23
175	0xe4	-28
176	0x17	23
177	0xdd	-35
178	0xe9	-23
179	0xfa	-6
180	0x04	4
181	0x11	17
182	0xed	-19
183	0xf4	-12
184	0xd1	-47
185	0x29	41
186	0xc7	-57
187	0xd3	-45
188	0x0a	10
189	0x35	53
190	0x81	-127
191	0x0f	15
192	0xfd	-3
193	0x01	1
194	0xe4	-28
195	0xee	-18
196	0x9e	-98
197	0x03	3
198	0xd1	-47
199	0x0a	10
200	0xe8	-24
201	0xf0	-16
202	0x3a	58
203	0x1c	28
204	0x15	21
205	0xe4	-28
206	0xef	-17
207	0x66	102
208	0x40	64
209	0x05	5
210	0x0e	14
211	0xed	-19
212	0xdd	-35
213	0xbc	-68
214	0x32	50
215	0xf8	-8
216	0x81	-127
217	0x57	87
218	0x35	53
219	0xfb	-5
220	0x10	16
221	0xce	-50
222	0x3e	62
223	0xf1	-15
224	0x21	33
225	0xe5	-27
226	0xdd	-35
227	0xdf	-33
228	0xce	-50
229	0xfc	-4
230	0xf3	-13
231	0x22	34
232	0x16	22
233	0xbb	-69
234	0x22	34
235	0xf4	-12
236	0xe0	-32
237	0x7f	127
238	0xf1	-15
239	0xea	-22
240	0x40	64
241	0x28	40
242	0x29	41
243	0xb9	-71
244	0x43	67
245	0x03	3
246	0xf4	-12
247	0xf9	-7
248	0x3e	62
249	0x13	19
250	0x35	53
251	0xfa	-6
252	0xe4	-28
253	0xd7	-41
254	0x34	52
255	0xa8	-88

model_1/conv2d_6/Conv2D/ReadVariableOp i1 [128, 1, 1, 64]
0	0x1e	30
1	0x37	55
2	0xe5	-27
3	0xc0	-64
4	0xd4	-44
5	0x07	7
6	0x2f	47
7	0xd8	-40
8	0x38	56
9	0xfd	-3
10	0x12	18
11	0x08	8
12	0xfa	-6
13	0x2a	42
14	0x2f	47
15	0xbe	-66
16	0xf3	-13
17	0xcd	-51
18	0xcc	-52
19	0x7f	127
20	0x13	19
21	0xd4	-44
22	0xb0	-80
23	0x1a	26
24	0x22	34
25	0x0e	14
26	0x41	65
27	0xc2	-62
28	0x1a	26
29	0x33	51
30	0xc6	-58
31	0x2c	44
32	0xce	-50
33	0xfc	-4
34	0x45	69
35	0xcc	-52
36	0xd6	-42
37	0xf6	-10
38	0xec	-20
39	0x05	5
40	0x15	21
41	0x1a	26
42	0x5a	90
43	0x2e	46
44	0xec	-20
45	0x04	4
46	0x0b	11
47	0xfb	-5
48	0xdb	-37
49	0x2b	43
50	0xd2	-46
51	0xf7	-9
52	0x0b	11
53	0xe7	-25
54	0xce	-50
55	0xd3	-45
56	0xf1	-15
57	0xe1	-31
58	0x24	36
59	0x42	66
60	0x1a	26
61	0xfd	-3
62	0xf8	-8
63	0xe7	-25
64	0x17	23
65	0x0a	10
66	0x38	56
67	0x08	8
68	0xdd	-35
69	0xbb	-69
70	0xce	-50
71	0xe0	-32
72	0xe2	-30
73	0xd0	-48
74	0x25	37
75	0xd8	-40
76	0x0f	15
77	0xb7	-73
78	0xe7	-25
79	0x01	1
80	0xbf	-65
81	0xdd	-35
82	0x89	-119
83	0x0a	10
84	0xce	-50
85	0xac	-84
86	0xa2	-94
87	0xed	-19
88	0x81	-127
89	0xe0	-32
90	0x44	68
91	0x03	3
92	0xcf	-49
93	0x38	56
94	0xe5	-27
95	0xe1	-31
96	0x83	-125
97	0x02	2
98	0x1d	29
99	0x0b	11
100	0xe2	-30
101	0x1e	30
102	0x6f	111
103	0x0c	12
104	0xd3	-45
105	0x0f	15
106	0x23	35
107	0x18	24
108	0xa4	-92
109	0xbf	-65
110	0xe4	-28
111	0xf9	-7
112	0xc0	-64
113	0xd6	-42
114	0xf3	-13
115	0xc6	-58
116	0xd8	-40
117	0xb4	-76
118	0xd7	-41
119	0xb4	-76
120	0xeb	-21
121	0xe6	-26
122	0x39	57
123	0xb0	-80
124	0x0e	14
125	0x7a	122
126	0xcf	-49
127	0xba	-70
128	0x05	5
129	0xf3	-13
130	0x24	36
131	0xf6	-10
132	0xc6	-58
133	0xef	-17
134	0xf9	-7
135	0xff	-1
136	0xdf	-33
137	0xd4	-44
138	0x43	67
139	0x0c	12
140	0x24	36
141	0xbd	-67
142	0xe4	-28
143	0xd8	-40
144	0x29	41
145	0xcb	-53
146	0x9f	-97
147	0x4b	75
148	0xb0	-80
149	0xe4	-28
150	0x9d	-99
151	0xb7	-73
152	0x12	18
153	0xc1	-63
154	0x64	100
155	0x06	6
156	0xdb	-37
157	0x51	81
158	0xf5	-11
159	0x02	2
160	0x9c	-100
161	0x01	1
162	0x3a	58
163	0x03	3
164	0x15	21
165	0x07	7
166	0x21	33
167	0x26	38
168	0x14	20
169	0x3a	58
170	0x11	17
171	0xff	-1
172	0xcf	-49
173	0xe8	-24
174	0x01	1
175	0xe2	-30
176	0x81	-127
177	0xcc	-52
178	0x1e	30
179	0x1f	31
180	0x3f	63
181	0x1e	30
182	0x9d	-99
183	0xb5	-75
184	0xd9	-39
185	0x02	2
186	0x17	23
187	0x0e	14
188	0x10	16
189	0x46	70
190	0xec	-20
191	0xdf	-33
192	0x52	82
193	0x37	55
194	0xb4	-76
195	0xdf	-33
196	0x11	17
197	0x03	3
198	0x27	39
199	0xee	-18
200	0xe2	-30
201	0x9d	-99
202	0x4c	76
203	0xe0	-32
204	0xd3	-45
205	0xef	-17
206	0xe3	-29
207	0xee	-18
208	0xe4	-28
209	0xf7	-9
210	0xa0	-96
211	0x39	57
212	0xf5	-11
213	0x2b	43
214	0xef	-17
215	0xd1	-47
216	0x17	23
217	0x04	4
218	0x07	7
219	0xc7	-57
220	0x34	52
221	0x12	18
222	0xbe	-66
223	0xf8	-8
224	0x08	8
225	0xe4	-28
226	0x4c	76
227	0x0b	11
228	0xff	-1
229	0x26	38
230	0xbf	-65
231	0x27	39
232	0xc7	-57
233	0x01	1
234	0x18	24
235	0xec	-20
236	0xdd	-35
237	0xcb	-53
238	0x13	19
239	0x17	23
240	0xd1	-47
241	0xf8	-8
242	0xd0	-48
243	0xf0	-16
244	0x4a	74
245	0xeb	-21
246	0x1e	30
247	0x81	-127
248	0xfd	-3
249	0x39	57
250	0x40	64
251	0x07	7
252	0xcc	-52
253	0x45	69
254	0xbc	-68
255	0xc8	-56

model_1/conv2d_7/Conv2D/ReadVariableOp i1 [7, 3, 3, 128]
0	0xe2	-30
1	0x60	96
2	0x09	9
3	0x23	35
4	0x19	25
5	0x41	65
6	0xd9	-39
7	0xa7	-89
8	0x04	4
9	0x11	17
10	0x00	0
11	0xca	-54
12	0x25	37
13	0xf7	-9
14	0xe2	-30
15	0x08	8
16	0x06	6
17	0xda	-38
18	0xe0	-32
19	0xfb	-5
20	0xf8	-8
21	0x1e	30
22	0xff	-1
23	0xda	-38
24	0x53	83
25	0xed	-19
26	0xeb	-21
27	0xbe	-66
28	0xe3	-29
29	0x9e	-98
30	0x48	72
31	0xbb	-69
32	0x28	40
33	0x67	103
34	0xec	-20
35	0xd6	-42
36	0x13	19
37	0xee	-18
38	0x19	25
39	0xff	-1
40	0xa4	-92
41	0x0f	15
42	0xea	-22
43	0x0b	11
44	0xd8	-40
45	0x36	54
46	0x43	67
47	0x67	103
48	0xea	-22
49	0x03	3
50	0xfa	-6
51	0x09	9
52	0x10	16
53	0x48	72
54	0x1b	27
55	0xf2	-14
56	0x17	23
57	0xd9	-39
58	0x06	6
59	0x47	71
60	0x3f	63
61	0x44	68
62	0xf2	-14
63	0xda	-38
64	0x21	33
65	0xb9	-71
66	0x35	53
67	0xf0	-16
68	0x23	35
69	0xd6	-42
70	0xc4	-60
71	0x19	25
72	0xdd	-35
73	0xdd	-35
74	0xa9	-87
75	0xd4	-44
76	0xf8	-8
77	0x18	24
78	0xdd	-35
79	0x32	50
80	0x1a	26
81	0xe8	-24
82	0x30	48
83	0xf4	-12
84	0x37	55
85	0xf9	-7
86	0xe0	-32
87	0x03	3
88	0x11	17
89	0x45	69
90	0xe7	-25
91	0xde	-34
92	0x31	49
93	0x10	16
94	0xe8	-24
95	0xea	-22
96	0x32	50
97	0x3a	58
98	0x14	20
99	0x21	33
100	0x46	70
101	0xaf	-81
102	0x1b	27
103	0xc4	-60
104	0xe2	-30
105	0xf9	-7
106	0x0a	10
107	0x0f	15
108	0xf2	-14
109	0x30	48
110	0x2a	42
111	0x04	4
112	0x19	25
113	0x47	71
114	0xa4	-92
115	0xd6	-42
116	0x17	23
117	0xd7	-41
118	0xdf	-33
119	0x1e	30
120	0x96	-106
121	0xc7	-57
122	0xe3	-29
123	0x03	3
124	0xcb	-53
125	0x34	52
126	0x1c	28
127	0xcf	-49
128	0x08	8
129	0x53	83
130	0x12	18
131	0x0a	10
132	0xfb	-5
133	0xff	-1
134	0xcd	-51
135	0xea	-22
136	0xec	-20
137	0xfa	-6
138	0x1e	30
139	0xe0	-32
140	0x23	35
141	0xdc	-36
142	0xeb	-21
143	0x09	9
144	0xe1	-31
145	0xf4	-12
146	0xe7	-25
147	0xe1	-31
148	0x2d	45
149	0xfd	-3
150	0xe4	-28
151	0xed	-19
152	0x1c	28
153	0xfe	-2
154	0xff	-1
155	0xff	-1
156	0xe3	-29
157	0x03	3
158	0x21	33
159	0xe5	-27
160	0xef	-17
161	0x2e	46
162	0xff	-1
163	0xd2	-46
164	0x0d	13
165	0xeb	-21
166	0x09	9
167	0xfe	-2
168	0xbb	-69
169	0xe4	-28
170	0xf7	-9
171	0x11	17
172	0xef	-17
173	0xfc	-4
174	0x14	20
175	0x13	19
176	0xe4	-28
177	0x24	36
178	0xfa	-6
179	0xe2	-30
180	0xff	-1
181	0x1c	28
182	0x08	8
183	0xf0	-16
184	0x15	21
185	0x13	19
186	0xe4	-28
187	0xf2	-14
188	0x60	96
189	0x3b	59
190	0x15	21
191	0xeb	-21
192	0x1f	31
193	0xeb	-21
194	0xff	-1
195	0xdb	-37
196	0x07	7
197	0xcc	-52
198	0x06	6
199	0x04	4
200	0xd1	-47
201	0x1e	30
202	0xb6	-74
203	0x06	6
204	0x0e	14
205	0x10	16
206	0xea	-22
207	0x1a	26
208	0x2e	46
209	0x11	17
210	0x01	1
211	0xf6	-10
212	0x0f	15
213	0xc6	-58
214	0x1f	31
215	0x04	4
216	0x16	22
217	0x08	8
218	0xe9	-23
219	0x01	1
220	0xf4	-12
221	0x26	38
222	0x16	22
223	0xfb	-5
224	0x26	38
225	0x09	9
226	0xee	-18
227	0xec	-20
228	0x2f	47
229	0x1e	30
230	0xca	-54
231	0xad	-83
232	0xdf	-33
233	0x1f	31
234	0xdd	-35
235	0x1f	31
236	0xeb	-21
237	0x2e	46
238	0xd9	-39
239	0x0d	13
240	0x0a	10
241	0x36	54
242	0xde	-34
243	0xd6	-42
244	0x37	55
245	0xe8	-24
246	0xe7	-25
247	0x0d	13
248	0xcf	-49
249	0xb1	-79
250	0x05	5
251	0xf2	-14
252	0xdb	-37
253	0xdb	-37
254	0x26	38
255	0xd8	-40

model_1/separable_conv2d_1/separable_conv2d/ReadVariableOp i1 [1, 3, 3, 8]
0	0x9d	-99
1	0x6d	109
2	0x0f	15
3	0x07	7
4	0xb6	-74
5	0xd7	-41
6	0x56	86
7	0x81	-127
8	0x9d	-99
9	0x5a	90
10	0x4e	78
11	0xf1	-15
12	0xd2	-46
13	0xc2	-62
14	0x7f	127
15	0x0d	13
16	0x02	2
17	0x13	19
18	0x87	-121
19	0x0d	13
20	0xd3	-45
21	0xfa	-6
22	0x14	20
23	0x5e	94
24	0x7f	127
25	0x43	67
26	0x7f	127
27	0x3b	59
28	0x7f	127
29	0xd0	-48
30	0x01	1
31	0xbf	-65
32	0x4f	79
33	0x93	-109
34	0xfc	-4
35	0x81	-127
36	0x76	118
37	0x0e	14
38	0xb6	-74
39	0xb4	-76
40	0xfc	-4
41	0x91	-111
42	0xb5	-75
43	0x37	55
44	0xd3	-45
45	0x1a	26
46	0x28	40
47	0x61	97
48	0xff	-1
49	0x81	-127
50	0xed	-19
51	0x07	7
52	0xc7	-57
53	0x81	-127
54	0x95	-107
55	0x20	32
56	0x22	34
57	0xbe	-66
58	0x28	40
59	0xce	-50
60	0x0d	13
61	0xeb	-21
62	0x93	-109
63	0xf1	-15
64	0xb5	-75
65	0x37	55
66	0xe4	-28
67	0x2a	42
68	0x1d	29
69	0x3f	63
70	0x0e	14
71	0x13	19

model_1/separable_conv2d_1/separable_conv2d/ReadVariableOp_1 i1 [16, 1, 1, 8]
0	0x3c	60
1	0x2c	44
2	0x06	6
3	0x64	100
4	0x03	3
5	0x57	87
6	0x7f	127
7	0x10	16
8	0xad	-83
9	0xdb	-37
10	0x13	19
11	0xed	-19
12	0x7f	127
13	0x25	37
14	0x15	21
15	0x08	8
16	0x32	50
17	0x0d	13
18	0x7f	127
19	0xc6	-58
20	0x23	35
21	0xf1	-15
22	0xf4	-12
23	0xdc	-36
24	0xfc	-4
25	0x5f	95
26	0x49	73
27	0xef	-17
28	0xde	-34
29	0x57	87
30	0x81	-127
31	0x65	101
32	0xe4	-28
33	0xfc	-4
34	0x29	41
35	0x2f	47
36	0x56	86
37	0x37	55
38	0x81	-127
39	0xa3	-93
40	0xf4	-12
41	0x0c	12
42	0x0f	15
43	0x7f	127
44	0xe9	-23
45	0x1a	26
46	0xea	-22
47	0xc5	-59
48	0x12	18
49	0xe9	-23
50	0xe7	-25
51	0x70	112
52	0xd2	-46
53	0x7f	127
54	0x8c	-116
55	0xd4	-44
56	0xf9	-7
57	0xe5	-27
58	0xf0	-16
59	0x7f	127
60	0x00	0
61	0x1d	29
62	0x74	116
63	0x14	20
64	0x7f	127
65	0x07	7
66	0x5a	90
67	0x47	71
68	0x27	39
69	0xa7	-89
70	0x44	68
71	0xed	-19
72	0x20	32
73	0x14	20
74	0x17	23
75	0xd6	-42
76	0x0c	12
77	0x28	40
78	0x0a	10
79	0x7f	127
80	0xbb	-69
81	0xeb	-21
82	0xaa	-86
83	0x1c	28
84	0x81	-127
85	0x44	68
86	0xb4	-76
87	0x0a	10
88	0x7f	127
89	0x18	24
90	0x1e	30
91	0x14	20
92	0xb1	-79
93	0xf0	-16
94	0xfb	-5
95	0x15	21
96	0x08	8
97	0x06	6
98	0x0a	10
99	0xf8	-8
100	0x81	-127
101	0x42	66
102	0x08	8
103	0x2a	42
104	0x14	20
105	0xcd	-51
106	0xd6	-42
107	0x33	51
108	0x12	18
109	0x7f	127
110	0x59	89
111	0xe5	-27
112	0xc6	-58
113	0x1c	28
114	0x19	25
115	0x7f	127
116	0xa6	-90
117	0xfe	-2
118	0xe0	-32
119	0xe2	-30
120	0x3c	60
121	0x7f	127
122	0xff	-1
123	0xe0	-32
124	0x93	-109
125	0xf2	-14
126	0x00	0
127	0x0d	13

model_1/separable_conv2d_2/separable_conv2d/ReadVariableOp i1 [1, 3, 3, 16]
0	0x53	83
1	0x1d	29
2	0xea	-22
3	0x16	22
4	0x3b	59
5	0x0f	15
6	0xe6	-26
7	0x42	66
8	0x81	-127
9	0x7c	124
10	0xfc	-4
11	0x9a	-102
12	0xee	-18
13	0x13	19
14	0x39	57
15	0x06	6
16	0xf8	-8
17	0x49	73
18	0xd7	-41
19	0x7e	126
20	0x0e	14
21	0x38	56
22	0x47	71
23	0x2c	44
24	0x93	-109
25	0x41	65
26	0x30	48
27	0x18	24
28	0xe0	-32
29	0x99	-103
30	0x2c	44
31	0xce	-50
32	0xb4	-76
33	0x05	5
34	0x22	34
35	0x18	24
36	0x9a	-102
37	0x14	20
38	0x7f	127
39	0x3e	62
40	0xe8	-24
41	0x07	7
42	0x26	38
43	0xda	-38
44	0xa5	-91
45	0xca	-54
46	0x81	-127
47	0x81	-127
48	0x49	73
49	0x7f	127
50	0x3d	61
51	0x12	18
52	0x39	57
53	0x6d	109
54	0x40	64
55	0xfd	-3
56	0xe6	-26
57	0x27	39
58	0x09	9
59	0xea	-22
60	0x35	53
61	0x4b	75
62	0x4e	78
63	0xaa	-86
64	0x7f	127
65	0x3b	59
66	0x2f	47
67	0xeb	-21
68	0x81	-127
69	0x7f	127
70	0xfc	-4
71	0xb3	-77
72	0xd6	-42
73	0x7f	127
74	0x7f	127
75	0xa9	-87
76	0xf5	-11
77	0x8e	-114
78	0x0a	10
79	0xa9	-87
80	0xf5	-11
81	0x23	35
82	0x15	21
83	0xf4	-12
84	0xa7	-89
85	0x05	5
86	0xbd	-67
87	0xba	-70
88	0xc4	-60
89	0x00	0
90	0x22	34
91	0x81	-127
92	0x81	-127
93	0x81	-127
94	0xbe	-66
95	0xd8	-40
96	0x3e	62
97	0x55	85
98	0x7f	127
99	0x0e	14
100	0xd5	-43
101	0x0b	11
102	0x24	36
103	0x7f	127
104	0x23	35
105	0xbb	-69
106	0x42	66
107	0xe9	-23
108	0xbd	-67
109	0xd6	-42
110	0x93	-109
111	0xbf	-65
112	0x13	19
113	0xfa	-6
114	0x54	84
115	0x81	-127
116	0xca	-54
117	0x64	100
118	0xbb	-69
119	0x17	23
120	0xd7	-41
121	0x15	21
122	0x1f	31
123	0x93	-109
124	0x05	5
125	0xfe	-2
126	0xd0	-48
127	0x0a	10
128	0x45	69
129	0xff	-1
130	0x19	25
131	0xd0	-48
132	0x11	17
133	0x59	89
134	0xc9	-55
135	0xb9	-71
136	0x85	-123
137	0x7f	127
138	0x29	41
139	0x99	-103
140	0xce	-50
141	0xda	-38
142	0x01	1
143	0x30	48

model_1/separable_conv2d_2/separable_conv2d/ReadVariableOp_1 i1 [16, 1, 1, 16]
0	0x4a	74
1	0x7f	127
2	0xd3	-45
3	0x01	1
4	0x57	87
5	0x24	36
6	0xf1	-15
7	0xdf	-33
8	0x18	24
9	0xb0	-80
10	0xc3	-61
11	0xa5	-91
12	0xf8	-8
13	0xcd	-51
14	0xd8	-40
15	0x14	20
16	0x7c	124
17	0x06	6
18	0xd5	-43
19	0xb7	-73
20	0xde	-34
21	0xd5	-43
22	0x0c	12
23	0xc5	-59
24	0x81	-127
25	0x3a	58
26	0xfc	-4
27	0xba	-70
28	0x3f	63
29	0xe1	-31
30	0x05	5
31	0xcd	-51
32	0x14	20
33	0x31	49
34	0x23	35
35	0x7f	127
36	0xd4	-44
37	0xc7	-57
38	0xad	-83
39	0xba	-70
40	0x29	41
41	0xcc	-52
42	0x0d	13
43	0x1c	28
44	0x27	39
45	0x21	33
46	0x1a	26
47	0xda	-38
48	0xc0	-64
49	0x0f	15
50	0x7f	127
51	0xf2	-14
52	0x0e	14
53	0x6e	110
54	0x29	41
55	0xa7	-89
56	0xd6	-42
57	0x13	19
58	0xe0	-32
59	0xcc	-52
60	0x36	54
61	0x55	85
62	0x17	23
63	0x21	33
64	0x0f	15
65	0x29	41
66	0xe4	-28
67	0x81	-127
68	0x4c	76
69	0xde	-34
70	0xda	-38
71	0x1e	30
72	0x27	39
73	0xd1	-47
74	0xcf	-49
75	0xdc	-36
76	0x07	7
77	0xef	-17
78	0xf7	-9
79	0xf4	-12
80	0xef	-17
81	0x9d	-99
82	0x08	8
83	0x4f	79
84	0x81	-127
85	0x16	22
86	0x44	68
87	0x06	6
88	0x03	3
89	0x2b	43
90	0x35	53
91	0x02	2
92	0x31	49
93	0x2d	45
94	0x10	16
95	0xe5	-27
96	0xc0	-64
97	0x1a	26
98	0xee	-18
99	0xdb	-37
100	0x4a	74
101	0x2f	47
102	0x11	17
103	0xf4	-12
104	0x18	24
105	0x7f	127
106	0xea	-22
107	0x07	7
108	0xfd	-3
109	0x01	1
110	0x1a	26
111	0xe9	-23
112	0xc4	-60
113	0x12	18
114	0x4e	78
115	0x24	36
116	0x0a	10
117	0x32	50
118	0xc9	-55
119	0x01	1
120	0xf2	-14
121	0xa7	-89
122	0x7b	123
123	0xdd	-35
124	0xde	-34
125	0x7f	127
126	0x1c	28
127	0x00	0
128	0x0a	10
129	0x46	70
130	0x30	48
131	0xe4	-28
132	0xf6	-10
133	0x30	48
134	0x12	18
135	0xfb	-5
136	0xfb	-5
137	0x49	73
138	0x10	16
139	0xb8	-72
140	0xd7	-41
141	0x06	6
142	0x7f	127
143	0x48	72
144	0xaf	-81
145	0x0e	14
146	0xbd	-67
147	0x0b	11
148	0xf3	-13
149	0xf2	-14
150	0x7f	127
151	0xd3	-45
152	0xee	-18
153	0x11	17
154	0x54	84
155	0x4e	78
156	0x8e	-114
157	0xed	-19
158	0xa3	-93
159	0xab	-85
160	0xd1	-47
161	0x1b	27
162	0x37	55
163	0x2f	47
164	0x38	56
165	0x1e	30
166	0x41	65
167	0x64	100
168	0x81	-127
169	0xe9	-23
170	0xfd	-3
171	0xe9	-23
172	0x48	72
173	0xdb	-37
174	0x41	65
175	0xdb	-37
176	0xeb	-21
177	0xdf	-33
178	0xfc	-4
179	0x03	3
180	0x7f	127
181	0x29	41
182	0x3e	62
183	0x3e	62
184	0x13	19
185	0x02	2
186	0xff	-1
187	0x42	66
188	0x2f	47
189	0x93	-109
190	0xfe	-2
191	0x3b	59
192	0x36	54
193	0x3d	61
194	0x21	33
195	0x4e	78
196	0x36	54
197	0x68	104
198	0xfb	-5
199	0x24	36
200	0x45	69
201	0x97	-105
202	0x67	103
203	0xbf	-65
204	0x94	-108
205	0x7f	127
206	0x24	36
207	0x1a	26
208	0x0c	12
209	0x81	-127
210	0x1e	30
211	0x40	64
212	0x18	24
213	0x55	85
214	0xb9	-71
215	0xd2	-46
216	0x2a	42
217	0x39	57
218	0x00	0
219	0x51	81
220	0x34	52
221	0xd1	-47
222	0xcc	-52
223	0x4b	75
224	0x20	32
225	0x62	98
226	0xc1	-63
227	0x19	25
228	0xfd	-3
229	0xbc	-68
230	0x7f	127
231	0x98	-104
232	0xf8	-8
233	0xc4	-60
234	0xc8	-56
235	0xce	-50
236	0xd6	-42
237	0x2d	45
238	0xf8	-8
239	0x90	-112
240	0x12	18
241	0x1f	31
242	0x25	37
243	0xde	-34
244	0x3c	60
245	0x22	34
246	0xcb	-53
247	0xf3	-13
248	0x4e	78
249	0x01	1
250	0x9e	-98
251	0xa8	-88
252	0xf6	-10
253	0x5d	93
254	0xbf	-65
255	0x81	-127

model_1/separable_conv2d_3/separable_conv2d/ReadVariableOp i1 [1, 3, 3, 16]
0	0x81	-127
1	0x81	-127
2	0xe2	-30
3	0xb5	-75
4	0x81	-127
5	0xbd	-67
6	0x8c	-116
7	0xe6	-26
8	0x1b	27
9	0xd4	-44
10	0x30	48
11	0x15	21
12	0x64	100
13	0xf5	-11
14	0x18	24
15	0x3c	60
16	0xce	-50
17	0x8f	-113
18	0x98	-104
19	0xb8	-72
20	0x99	-103
21	0xa4	-92
22	0xd7	-41
23	0x20	32
24	0x27	39
25	0x00	0
26	0xd7	-41
27	0xf7	-9
28	0x72	114
29	0xdf	-33
30	0x25	37
31	0x7f	127
32	0xfd	-3
33	0xc7	-57
34	0xb9	-71
35	0xc3	-61
36	0x8c	-116
37	0xbc	-68
38	0xfb	-5
39	0x81	-127
40	0xeb	-21
41	0x60	96
42	0x0c	12
43	0xcd	-51
44	0x5e	94
45	0x2c	44
46	0x3c	60
47	0x42	66
48	0xfa	-6
49	0xd4	-44
50	0xb1	-79
51	0xf3	-13
52	0xb0	-80
53	0xa9	-87
54	0xfc	-4
55	0x30	48
56	0x4e	78
57	0x81	-127
58	0xe4	-28
59	0x7f	127
60	0x7f	127
61	0x46	70
62	0x69	105
63	0x16	22
64	0x5a	90
65	0x3d	61
66	0x10	16
67	0x3c	60
68	0xc3	-61
69	0x81	-127
70	0x52	82
71	0x38	56
72	0x7f	127
73	0x98	-104
74	0x81	-127
75	0x36	54
76	0x72	114
77	0x38	56
78	0x7f	127
79	0xfe	-2
80	0x40	64
81	0x11	17
82	0x66	102
83	0x31	49
84	0x81	-127
85	0xd4	-44
86	0x53	83
87	0xe4	-28
88	0x3b	59
89	0x14	20
90	0xc3	-61
91	0xec	-20
92	0x30	48
93	0x7f	127
94	0x5d	93
95	0xc3	-61
96	0x3b	59
97	0xe2	-30
98	0x68	104
99	0x35	53
100	0x06	6
101	0xa4	-92
102	0x7f	127
103	0x4d	77
104	0xb9	-71
105	0xf5	-11
106	0x0d	13
107	0x33	51
108	0xdc	-36
109	0x54	84
110	0x30	48
111	0x1b	27
112	0x57	87
113	0xfe	-2
114	0x7f	127
115	0x7f	127
116	0x03	3
117	0x1f	31
118	0x62	98
119	0x56	86
120	0x27	39
121	0xc0	-64
122	0xaf	-81
123	0xf8	-8
124	0xc3	-61
125	0x4f	79
126	0x2d	45
127	0x39	57
128	0x25	37
129	0x35	53
130	0x1e	30
131	0x5b	91
132	0xda	-38
133	0x2b	43
134	0x3c	60
135	0x50	80
136	0x2c	44
137	0xd0	-48
138	0xdf	-33
139	0xb5	-75
140	0xae	-82
141	0x0e	14
142	0xc2	-62
143	0x3a	58

model_1/separable_conv2d_3/separable_conv2d/ReadVariableOp_1 i1 [32, 1, 1, 16]
0	0xec	-20
1	0x21	33
2	0x81	-127
3	0x47	71
4	0xcc	-52
5	0x19	25
6	0x1e	30
7	0xfe	-2
8	0x01	1
9	0xf8	-8
10	0xef	-17
11	0x29	41
12	0x06	6
13	0xd5	-43
14	0xfe	-2
15	0xce	-50
16	0x3b	59
17	0x15	21
18	0xa6	-90
19	0xfe	-2
20	0x99	-103
21	0x52	82
22	0x65	101
23	0x61	97
24	0x22	34
25	0x78	120
26	0x7f	127
27	0xe1	-31
28	0x83	-125
29	0xa9	-87
30	0x55	85
31	0x23	35
32	0xd7	-41
33	0x27	39
34	0x1e	30
35	0x27	39
36	0x2f	47
37	0xef	-17
38	0x1a	26
39	0xf4	-12
40	0x9f	-97
41	0x9f	-97
42	0x25	37
43	0x2f	47
44	0x66	102
45	0x2e	46
46	0xcd	-51
47	0x81	-127
48	0x2e	46
49	0xe8	-24
50	0xd2	-46
51	0x05	5
52	0xb8	-72
53	0x51	81
54	0x2c	44
55	0x0a	10
56	0x27	39
57	0x36	54
58	0x2c	44
59	0x10	16
60	0x81	-127
61	0x25	37
62	0xf8	-8
63	0xee	-18
64	0x9e	-98
65	0xca	-54
66	0xaf	-81
67	0xfb	-5
68	0x82	-126
69	0x0d	13
70	0x23	35
71	0x84	-124
72	0x24	36
73	0x17	23
74	0x55	85
75	0x7f	127
76	0xc6	-58
77	0x27	39
78	0xf3	-13
79	0x11	17
80	0xbc	-68
81	0xe7	-25
82	0x67	103
83	0x08	8
84	0xc7	-57
85	0x81	-127
86	0xd7	-41
87	0x83	-125
88	0xaf	-81
89	0x4e	78
90	0x23	35
91	0xb7	-73
92	0xc4	-60
93	0x35	53
94	0xcc	-52
95	0x6c	108
96	0xf4	-12
97	0x07	7
98	0x9f	-97
99	0xdb	-37
100	0xec	-20
101	0x3e	62
102	0xeb	-21
103	0x06	6
104	0x17	23
105	0x7f	127
106	0x38	56
107	0xd5	-43
108	0xeb	-21
109	0xd1	-47
110	0x39	57
111	0xf7	-9
112	0xdd	-35
113	0x81	-127
114	0x26	38
115	0x0e	14
116	0xf3	-13
117	0x77	119
118	0xe1	-31
119	0x55	85
120	0xc3	-61
121	0xa6	-90
122	0x27	39
123	0xa1	-95
124	0x1e	30
125	0xab	-85
126	0x03	3
127	0xcb	-53
128	0xd1	-47
129	0xd4	-44
130	0x0e	14
131	0x12	18
132	0x3b	59
133	0x17	23
134	0x41	65
135	0x1d	29
136	0xde	-34
137	0x7f	127
138	0x16	22
139	0xc5	-59
140	0x18	24
141	0xfb	-5
142	0xe9	-23
143	0xa2	-94
144	0xf1	-15
145	0xc1	-63
146	0x0d	13
147	0x5a	90
148	0x81	-127
149	0xfd	-3
150	0xee	-18
151	0x03	3
152	0x5e	94
153	0x02	2
154	0xc6	-58
155	0xbf	-65
156	0x39	57
157	0x44	68
158	0x08	8
159	0xf8	-8
160	0xe2	-30
161	0x40	64
162	0x26	38
163	0x0f	15
164	0xe4	-28
165	0x01	1
166	0x0d	13
167	0x81	-127
168	0x71	113
169	0x8f	-113
170	0x3e	62
171	0x5d	93
172	0x21	33
173	0xe8	-24
174	0xff	-1
175	0xd9	-39
176	0x18	24
177	0x70	112
178	0xd3	-45
179	0x07	7
180	0x26	38
181	0x00	0
182	0x7f	127
183	0xe2	-30
184	0xf7	-9
185	0x13	19
186	0x22	34
187	0x23	35
188	0xc0	-64
189	0x10	16
190	0xc3	-61
191	0xf3	-13
192	0xf9	-7
193	0x16	22
194	0x02	2
195	0x2d	45
196	0x18	24
197	0xe0	-32
198	0xcd	-51
199	0xe8	-24
200	0x50	80
201	0xda	-38
202	0x81	-127
203	0x17	23
204	0x14	20
205	0x0a	10
206	0x29	41
207	0xc7	-57
208	0x21	33
209	0x81	-127
210	0x50	80
211	0xb6	-74
212	0x1c	28
213	0xcd	-51
214	0xbc	-68
215	0xdb	-37
216	0x05	5
217	0x31	49
218	0x41	65
219	0xe9	-23
220	0x11	17
221	0xfc	-4
222	0xfc	-4
223	0x63	99
224	0x1e	30
225	0x54	84
226	0x01	1
227	0x41	65
228	0xf5	-11
229	0xa0	-96
230	0x6f	111
231	0x34	52
232	0x7f	127
233	0xd9	-39
234	0x23	35
235	0x15	21
236	0xda	-38
237	0x38	56
238	0x12	18
239	0x40	64
240	0x9f	-97
241	0xdf	-33
242	0x32	50
243	0xb4	-76
244	0x55	85
245	0x3d	61
246	0x15	21
247	0xaf	-81
248	0x15	21
249	0x28	40
250	0x34	52
251	0x41	65
252	0xd1	-47
253	0x46	70
254	0x81	-127
255	0x20	32

model_1/separable_conv2d_4/separable_conv2d/ReadVariableOp i1 [1, 3, 3, 32]
0	0x66	102
1	0x15	21
2	0x22	34
3	0x3c	60
4	0x46	70
5	0xe2	-30
6	0xc0	-64
7	0x2f	47
8	0x47	71
9	0x7f	127
10	0xaa	-86
11	0x7f	127
12	0xb4	-76
13	0x5f	95
14	0x26	38
15	0xb0	-80
16	0xcb	-53
17	0x99	-103
18	0x74	116
19	0x81	-127
20	0xb3	-77
21	0x4a	74
22	0xce	-50
23	0x7f	127
24	0xaa	-86
25	0x81	-127
26	0xe0	-32
27	0x29	41
28	0xc9	-55
29	0xdf	-33
30	0x00	0
31	0x59	89
32	0x56	86
33	0xe2	-30
34	0x7f	127
35	0x0d	13
36	0x57	87
37	0xd0	-48
38	0xce	-50
39	0x1f	31
40	0x44	68
41	0x4e	78
42	0x81	-127
43	0x2f	47
44	0x0f	15
45	0x11	17
46	0x24	36
47	0x92	-110
48	0xbf	-65
49	0xdf	-33
50	0x3f	63
51	0xa4	-92
52	0xf2	-14
53	0x63	99
54	0xf2	-14
55	0x24	36
56	0x9f	-97
57	0x09	9
58	0xa6	-90
59	0x7f	127
60	0xe3	-29
61	0xd0	-48
62	0xbc	-68
63	0x59	89
64	0x4a	74
65	0x81	-127
66	0x36	54
67	0x8c	-116
68	0x56	86
69	0x9e	-98
70	0x93	-109
71	0x2d	45
72	0x54	84
73	0x3c	60
74	0x03	3
75	0xe5	-27
76	0xe9	-23
77	0xdd	-35
78	0xa7	-89
79	0xb5	-75
80	0xdd	-35
81	0x13	19
82	0x1b	27
83	0x9c	-100
84	0xbf	-65
85	0x4e	78
86	0xd3	-45
87	0x44	68
88	0xa0	-96
89	0x4c	76
90	0x81	-127
91	0x63	99
92	0x8a	-118
93	0xea	-22
94	0xf2	-14
95	0x3a	58
96	0x43	67
97	0x5d	93
98	0xf5	-11
99	0x10	16
100	0x16	22
101	0xe8	-24
102	0x86	-122
103	0x69	105
104	0x59	89
105	0x15	21
106	0xa7	-89
107	0x09	9
108	0xa7	-89
109	0x7f	127
110	0x7f	127
111	0xd5	-43
112	0x81	-127
113	0x81	-127
114	0x77	119
115	0xfa	-6
116	0x26	38
117	0x7f	127
118	0x81	-127
119	0x6e	110
120	0x0b	11
121	0xf6	-10
122	0xa2	-94
123	0x1d	29
124	0x29	41
125	0xc2	-62
126	0xe7	-25
127	0x7f	127
128	0x7f	127
129	0x24	36
130	0x56	86
131	0xd4	-44
132	0x36	54
133	0xb7	-73
134	0xbb	-69
135	0x44	68
136	0x42	66
137	0x27	39
138	0xaa	-86
139	0xe7	-25
140	0xb6	-74
141	0x1c	28
142	0x3e	62
143	0xc5	-59
144	0xb7	-73
145	0xaf	-81
146	0x7f	127
147	0xd4	-44
148	0x7f	127
149	0x7f	127
150	0x84	-124
151	0x5b	91
152	0xf7	-9
153	0x4b	75
154	0x8c	-116
155	0x0c	12
156	0xd8	-40
157	0x81	-127
158	0xdf	-33
159	0x41	65
160	0x63	99
161	0x16	22
162	0x63	99
163	0x82	-126
164	0x54	84
165	0x81	-127
166	0x81	-127
167	0x10	16
168	0x6c	108
169	0x26	38
170	0x2d	45
171	0x0d	13
172	0x05	5
173	0xf6	-10
174	0xe2	-30
175	0xc2	-62
176	0xf2	-14
177	0xca	-54
178	0x5e	94
179	0x9f	-97
180	0x02	2
181	0x6a	106
182	0x92	-110
183	0x35	53
184	0xf9	-7
185	0x47	71
186	0x9a	-102
187	0x0e	14
188	0xa2	-94
189	0xad	-83
190	0xc5	-59
191	0x33	51
192	0x0b	11
193	0x27	39
194	0xc0	-64
195	0xe5	-27
196	0x2c	44
197	0xdb	-37
198	0xf8	-8
199	0x7f	127
200	0x2c	44
201	0x97	-105
202	0xdf	-33
203	0x99	-103
204	0x81	-127
205	0xd5	-43
206	0x5d	93
207	0xda	-38
208	0xef	-17
209	0x98	-104
210	0x35	53
211	0x30	48
212	0x59	89
213	0xe0	-32
214	0x92	-110
215	0x3d	61
216	0x81	-127
217	0x7f	127
218	0xd6	-42
219	0xc3	-61
220	0x7f	127
221	0xb8	-72
222	0xe3	-29
223	0x49	73
224	0x4a	74
225	0x56	86
226	0xfc	-4
227	0x81	-127
228	0x36	54
229	0xde	-34
230	0xac	-84
231	0x43	67
232	0x34	52
233	0x14	20
234	0x14	20
235	0x9b	-101
236	0xa4	-92
237	0xb5	-75
238	0x50	80
239	0x81	-127
240	0xed	-19
241	0xdc	-36
242	0x5d	93
243	0x18	24
244	0x70	112
245	0x04	4
246	0x8e	-114
247	0x2e	46
248	0xa5	-91
249	0x19	25
250	0x9b	-101
251	0xa5	-91
252	0xb4	-76
253	0x9f	-97
254	0xa6	-90
255	0x17	23

model_1/separable_conv2d_4/separable_conv2d/ReadVariableOp_1 i1 [32, 1, 1, 32]
0	0x2e	46
1	0xb8	-72
2	0xb7	-73
3	0xa5	-91
4	0x3c	60
5	0xdd	-35
6	0x72	114
7	0xad	-83
8	0xaf	-81
9	0xe9	-23
10	0x0b	11
11	0x81	-127
12	0x37	55
13	0x0d	13
14	0xdc	-36
15	0xf5	-11
16	0x0e	14
17	0xf5	-11
18	0xd6	-42
19	0xd4	-44
20	0xd3	-45
21	0xcb	-53
22	0x2f	47
23	0x67	103
24	0x63	99
25	0xfe	-2
26	0x7e	126
27	0x5f	95
28	0x98	-104
29	0xd6	-42
30	0x19	25
31	0x51	81
32	0x49	73
33	0xb3	-77
34	0xc7	-57
35	0x28	40
36	0xbf	-65
37	0x6e	110
38	0x25	37
39	0xfc	-4
40	0x1b	27
41	0xed	-19
42	0x81	-127
43	0x30	48
44	0x4e	78
45	0xc7	-57
46	0x0a	10
47	0x7e	126
48	0x28	40
49	0xec	-20
50	0x0c	12
51	0x39	57
52	0x00	0
53	0x10	16
54	0xd1	-47
55	0xd7	-41
56	0x2b	43
57	0x15	21
58	0xbc	-68
59	0x47	71
60	0xd7	-41
61	0x4b	75
62	0xaf	-81
63	0xfe	-2
64	0x0e	14
65	0xfe	-2
66	0xf9	-7
67	0x12	18
68	0xf9	-7
69	0x81	-127
70	0xda	-38
71	0x41	65
72	0xdc	-36
73	0xca	-54
74	0x25	37
75	0xc1	-63
76	0xf6	-10
77	0xaf	-81
78	0xe1	-31
79	0xdf	-33
80	0x4b	75
81	0x06	6
82	0x92	-110
83	0x3f	63
84	0xd1	-47
85	0x6f	111
86	0xe7	-25
87	0xf0	-16
88	0x02	2
89	0x43	67
90	0xd2	-46
91	0xee	-18
92	0x8b	-117
93	0x20	32
94	0x34	52
95	0x8d	-115
96	0xe6	-26
97	0xa7	-89
98	0xc7	-57
99	0x79	121
100	0x0d	13
101	0xbe	-66
102	0x42	66
103	0x33	51
104	0x81	-127
105	0xd3	-45
106	0xf5	-11
107	0x33	51
108	0x19	25
109	0x15	21
110	0x0e	14
111	0xeb	-21
112	0x48	72
113	0x2a	42
114	0x12	18
115	0xc3	-61
116	0x12	18
117	0x44	68
118	0xf8	-8
119	0xc7	-57
120	0x2e	46
121	0x3d	61
122	0x51	81
123	0xa6	-90
124	0x3f	63
125	0xfe	-2
126	0xec	-20
127	0xf4	-12
128	0xcf	-49
129	0x09	9
130	0x8b	-117
131	0x29	41
132	0x1e	30
133	0xbf	-65
134	0x35	53
135	0x2e	46
136	0xa9	-87
137	0xe0	-32
138	0x1d	29
139	0x2d	45
140	0x09	9
141	0xf1	-15
142	0xb2	-78
143	0x2f	47
144	0xe1	-31
145	0x4b	75
146	0xec	-20
147	0x1b	27
148	0xf0	-16
149	0x41	65
150	0x4c	76
151	0xce	-50
152	0x81	-127
153	0x66	102
154	0x22	34
155	0x02	2
156	0x2b	43
157	0xdb	-37
158	0x11	17
159	0x32	50
160	0x02	2
161	0x15	21
162	0xf4	-12
163	0xdb	-37
164	0xe6	-26
165	0x3c	60
166	0x90	-112
167	0x7f	127
168	0xbb	-69
169	0x50	80
170	0x24	36
171	0x24	36
172	0x01	1
173	0x1a	26
174	0xa8	-88
175	0x3d	61
176	0x68	104
177	0x33	51
178	0x39	57
179	0xf1	-15
180	0x09	9
181	0x30	48
182	0xf6	-10
183	0xbb	-69
184	0xa2	-94
185	0x01	1
186	0x36	54
187	0x14	20
188	0xc3	-61
189	0xff	-1
190	0x1b	27
191	0xa6	-90
192	0x3e	62
193	0x5f	95
194	0x03	3
195	0xc7	-57
196	0x21	33
197	0xfd	-3
198	0x21	33
199	0xd9	-39
200	0xd5	-43
201	0xf8	-8
202	0x00	0
203	0xb4	-76
204	0x2a	42
205	0x46	70
206	0x54	84
207	0x41	65
208	0xe7	-25
209	0x21	33
210	0x01	1
211	0xff	-1
212	0x81	-127
213	0x26	38
214	0x4d	77
215	0xe1	-31
216	0x17	23
217	0x08	8
218	0xe2	-30
219	0xfc	-4
220	0x6d	109
221	0xc4	-60
222	0xef	-17
223	0x32	50
224	0x6c	108
225	0xc3	-61
226	0xa0	-96
227	0xe9	-23
228	0x5e	94
229	0xd8	-40
230	0x1b	27
231	0xb1	-79
232	0x8f	-113
233	0xc6	-58
234	0x43	67
235	0x3d	61
236	0x5f	95
237	0x36	54
238	0x28	40
239	0x51	81
240	0xae	-82
241	0x0f	15
242	0xec	-20
243	0x37	55
244	0x09	9
245	0x01	1
246	0xd3	-45
247	0x49	73
248	0xd8	-40
249	0x7f	127
250	0xd4	-44
251	0xe4	-28
252	0xe6	-26
253	0xd4	-44
254	0x34	52
255	0x2a	42

model_1/separable_conv2d_5/separable_conv2d/ReadVariableOp i1 [1, 3, 3, 32]
0	0xd4	-44
1	0xee	-18
2	0x70	112
3	0x02	2
4	0x98	-104
5	0xda	-38
6	0xb8	-72
7	0x7f	127
8	0xfe	-2
9	0x39	57
10	0x8f	-113
11	0xdc	-36
12	0x05	5
13	0x2c	44
14	0xc6	-58
15	0x66	102
16	0xf7	-9
17	0xf6	-10
18	0x13	19
19	0xff	-1
20	0x24	36
21	0x8d	-115
22	0xb4	-76
23	0xcd	-51
24	0x27	39
25	0x5f	95
26	0xe2	-30
27	0x61	97
28	0x81	-127
29	0xe9	-23
30	0x86	-122
31	0xfa	-6
32	0xe0	-32
33	0x31	49
34	0xdb	-37
35	0x16	22
36	0x95	-107
37	0x0a	10
38	0xe2	-30
39	0x5a	90
40	0x66	102
41	0x65	101
42	0x81	-127
43	0xe6	-26
44	0x34	52
45	0x7f	127
46	0x27	39
47	0x75	117
48	0x10	16
49	0x4a	74
50	0xa4	-92
51	0xdd	-35
52	0xe3	-29
53	0xda	-38
54	0x81	-127
55	0x26	38
56	0x3b	59
57	0x2b	43
58	0x06	6
59	0x55	85
60	0xe3	-29
61	0x81	-127
62	0xe2	-30
63	0x81	-127
64	0x20	32
65	0xe9	-23
66	0xc6	-58
67	0x41	65
68	0x5e	94
69	0x50	80
70	0x1c	28
71	0x93	-109
72	0x56	86
73	0x7f	127
74	0x87	-121
75	0xc4	-60
76	0x6a	106
77	0x0e	14
78	0x59	89
79	0xe9	-23
80	0x2b	43
81	0x41	65
82	0xae	-82
83	0x28	40
84	0xa0	-96
85	0x0c	12
86	0xbe	-66
87	0x70	112
88	0x29	41
89	0x3c	60
90	0x0c	12
91	0x45	69
92	0x12	18
93	0xbc	-68
94	0x36	54
95	0xa5	-91
96	0x81	-127
97	0x30	48
98	0x1b	27
99	0x3c	60
100	0xb1	-79
101	0x81	-127
102	0xd8	-40
103	0x6a	106
104	0xbc	-68
105	0x2a	42
106	0xb1	-79
107	0x81	-127
108	0x2e	46
109	0x09	9
110	0x8f	-113
111	0x0f	15
112	0x40	64
113	0x07	7
114	0xda	-38
115	0xe9	-23
116	0xde	-34
117	0x0a	10
118	0xe9	-23
119	0xbb	-69
120	0xff	-1
121	0x0b	11
122	0xb4	-76
123	0x39	57
124	0xa6	-90
125	0xee	-18
126	0xcb	-53
127	0xd1	-47
128	0x02	2
129	0x39	57
130	0xb1	-79
131	0xbd	-67
132	0x81	-127
133	0xee	-18
134	0x9e	-98
135	0x58	88
136	0x1e	30
137	0x30	48
138	0xdf	-33
139	0x8a	-118
140	0x5e	94
141	0x4c	76
142	0xd1	-47
143	0x6f	111
144	0x7f	127
145	0x7f	127
146	0x89	-119
147	0x83	-125
148	0x9f	-97
149	0x57	87
150	0xfc	-4
151	0x0d	13
152	0xa3	-93
153	0xf1	-15
154	0xcb	-53
155	0x8b	-117
156	0xf0	-16
157	0xae	-82
158	0x2c	44
159	0xc2	-62
160	0x54	84
161	0xc0	-64
162	0xc3	-61
163	0xfa	-6
164	0xe0	-32
165	0x52	82
166	0xce	-50
167	0xab	-85
168	0x6d	109
169	0x3d	61
170	0xb5	-75
171	0x9f	-97
172	0x7f	127
173	0x00	0
174	0x5f	95
175	0xff	-1
176	0x65	101
177	0x5a	90
178	0xe8	-24
179	0x0c	12
180	0x81	-127
181	0x76	118
182	0xf5	-11
183	0x3f	63
184	0xf3	-13
185	0x55	85
186	0x0c	12
187	0x81	-127
188	0xec	-20
189	0xae	-82
190	0x43	67
191	0xe9	-23
192	0xbb	-69
193	0x5a	90
194	0xde	-34
195	0x1e	30
196	0xfb	-5
197	0xb7	-73
198	0x7f	127
199	0xea	-22
200	0x81	-127
201	0xe3	-29
202	0x0a	10
203	0xf9	-7
204	0xf0	-16
205	0xea	-22
206	0x83	-125
207	0x81	-127
208	0x0c	12
209	0xf8	-8
210	0x30	48
211	0xfd	-3
212	0x1a	26
213	0xcc	-52
214	0x61	97
215	0x9b	-101
216	0x0d	13
217	0x81	-127
218	0xd4	-44
219	0x11	17
220	0xf9	-7
221	0x2c	44
222	0xaf	-81
223	0xf9	-7
224	0x51	81
225	0x7f	127
226	0xaa	-86
227	0x81	-127
228	0xed	-19
229	0x14	20
230	0x4a	74
231	0x16	22
232	0xa9	-87
233	0xe4	-28
234	0x7b	123
235	0xcd	-51
236	0xf6	-10
237	0xb2	-78
238	0x81	-127
239	0xd4	-44
240	0x1e	30
241	0x32	50
242	0x09	9
243	0x81	-127
244	0x50	80
245	0x21	33
246	0x7b	123
247	0x81	-127
248	0x81	-127
249	0x9a	-102
250	0x81	-127
251	0x9c	-100
252	0x7b	123
253	0x55	85
254	0x81	-127
255	0x96	-106

model_1/separable_conv2d_5/separable_conv2d/ReadVariableOp_1 i1 [64, 1, 1, 32]
0	0x2d	45
1	0x17	23
2	0x40	64
3	0xd3	-45
4	0x3a	58
5	0xcb	-53
6	0xe4	-28
7	0xed	-19
8	0xe8	-24
9	0x53	83
10	0xf5	-11
11	0xfe	-2
12	0x1e	30
13	0xb6	-74
14	0xf2	-14
15	0x10	16
16	0xa6	-90
17	0xf3	-13
18	0x1a	26
19	0x16	22
20	0xe1	-31
21	0x47	71
22	0x84	-124
23	0x1b	27
24	0x43	67
25	0xb0	-80
26	0x19	25
27	0xde	-34
28	0x2e	46
29	0xfd	-3
30	0x81	-127
31	0xe7	-25
32	0xf5	-11
33	0xf0	-16
34	0xd7	-41
35	0xc4	-60
36	0x16	22
37	0xf1	-15
38	0xe0	-32
39	0x47	71
40	0x21	33
41	0x3f	63
42	0x06	6
43	0xe5	-27
44	0xf5	-11
45	0x10	16
46	0x09	9
47	0x2f	47
48	0x74	116
49	0x10	16
50	0xe1	-31
51	0xb6	-74
52	0xe5	-27
53	0x32	50
54	0xd9	-39
55	0x00	0
56	0x1d	29
57	0xb7	-73
58	0x81	-127
59	0xe3	-29
60	0xdf	-33
61	0x15	21
62	0x23	35
63	0x32	50
64	0x15	21
65	0x42	66
66	0xfb	-5
67	0x03	3
68	0xf3	-13
69	0x6d	109
70	0x29	41
71	0xea	-22
72	0x08	8
73	0x07	7
74	0x2c	44
75	0x03	3
76	0xd3	-45
77	0xe3	-29
78	0xc0	-64
79	0xe1	-31
80	0x42	66
81	0xe9	-23
82	0x1f	31
83	0xd9	-39
84	0x33	51
85	0xc5	-59
86	0x04	4
87	0xd8	-40
88	0x28	40
89	0xfd	-3
90	0xff	-1
91	0x02	2
92	0x2c	44
93	0x37	55
94	0x81	-127
95	0xce	-50
96	0x7d	125
97	0xc7	-57
98	0x2a	42
99	0xdf	-33
100	0xe4	-28
101	0x39	57
102	0x09	9
103	0x7f	127
104	0xc4	-60
105	0xec	-20
106	0xfb	-5
107	0xec	-20
108	0x9c	-100
109	0x06	6
110	0xf8	-8
111	0xca	-54
112	0xe1	-31
113	0xdb	-37
114	0xee	-18
115	0x3c	60
116	0x0a	10
117	0x9f	-97
118	0xed	-19
119	0x30	48
120	0x26	38
121	0x13	19
122	0xf3	-13
123	0xd9	-39
124	0x2c	44
125	0xf4	-12
126	0xd7	-41
127	0x53	83
128	0x7f	127
129	0x1a	26
130	0x41	65
131	0x02	2
132	0x00	0
133	0x10	16
134	0xe2	-30
135	0x00	0
136	0xbc	-68
137	0x12	18
138	0xf7	-9
139	0x23	35
140	0xea	-22
141	0x05	5
142	0xed	-19
143	0xff	-1
144	0xfd	-3
145	0x02	2
146	0xe3	-29
147	0x06	6
148	0x0e	14
149	0x14	20
150	0x0c	12
151	0xf0	-16
152	0x1e	30
153	0xef	-17
154	0x09	9
155	0x34	52
156	0x03	3
157	0xc7	-57
158	0xda	-38
159	0xf5	-11
160	0x92	-110
161	0x5b	91
162	0x02	2
163	0xc2	-62
164	0xcd	-51
165	0xff	-1
166	0xc1	-63
167	0x7f	127
168	0x2d	45
169	0x1e	30
170	0xe8	-24
171	0x12	18
172	0x06	6
173	0xd9	-39
174	0xc0	-64
175	0xfe	-2
176	0xd2	-46
177	0x37	55
178	0xf5	-11
179	0xc7	-57
180	0xef	-17
181	0xdb	-37
182	0x8a	-118
183	0x43	67
184	0xd2	-46
185	0x1e	30
186	0x56	86
187	0x49	73
188	0x81	-127
189	0x36	54
190	0x53	83
191	0x93	-109
192	0x43	67
193	0xe5	-27
194	0x2c	44
195	0x2a	42
196	0x12	18
197	0x53	83
198	0x02	2
199	0xf5	-11
200	0xdd	-35
201	0x1b	27
202	0x1f	31
203	0x43	67
204	0xc6	-58
205	0x14	20
206	0xf2	-14
207	0xd7	-41
208	0x05	5
209	0x14	20
210	0xd3	-45
211	0x18	24
212	0xd0	-48
213	0x81	-127
214	0xd5	-43
215	0xcd	-51
216	0x28	40
217	0xd6	-42
218	0xe0	-32
219	0x16	22
220	0xfd	-3
221	0xf0	-16
222	0xc7	-57
223	0x5c	92
224	0xe5	-27
225	0xe2	-30
226	0x88	-120
227	0xeb	-21
228	0x7f	127
229	0xc4	-60
230	0xe5	-27
231	0xd8	-40
232	0xc1	-63
233	0xd5	-43
234	0x15	21
235	0x1c	28
236	0xb0	-80
237	0xe9	-23
238	0xbc	-68
239	0x3b	59
240	0x72	114
241	0x05	5
242	0x34	52
243	0x32	50
244	0x03	3
245	0x0d	13
246	0x2f	47
247	0xfd	-3
248	0x2d	45
249	0x4d	77
250	0x1e	30
251	0xbd	-67
252	0x14	20
253	0xe4	-28
254	0x03	3
255	0xb9	-71

model_1/separable_conv2d_6/separable_conv2d/ReadVariableOp i1 [1, 3, 3, 64]
0	0xcc	-52
1	0x81	-127
2	0xc2	-62
3	0xf1	-15
4	0xc6	-58
5	0x81	-127
6	0x3b	59
7	0x7f	127
8	0x91	-111
9	0xf7	-9
10	0xfb	-5
11	0x30	48
12	0x39	57
13	0x98	-104
14	0x07	7
15	0x66	102
16	0xd1	-47
17	0xb9	-71
18	0x92	-110
19	0x81	-127
20	0xc4	-60
21	0xbd	-67
22	0x34	52
23	0x1e	30
24	0x81	-127
25	0x09	9
26	0xd8	-40
27	0x29	41
28	0xf5	-11
29	0xc1	-63
30	0x16	22
31	0x45	69
32	0x91	-111
33	0xcd	-51
34	0x15	21
35	0xce	-50
36	0x48	72
37	0x6f	111
38	0x0c	12
39	0x39	57
40	0xad	-83
41	0xf7	-9
42	0xe5	-27
43	0xb9	-71
44	0xeb	-21
45	0x42	66
46	0xea	-22
47	0x53	83
48	0x97	-105
49	0xab	-85
50	0xa2	-94
51	0xd2	-46
52	0x39	57
53	0x58	88
54	0x05	5
55	0x4d	77
56	0x98	-104
57	0xe2	-30
58	0x38	56
59	0xdb	-37
60	0xf3	-13
61	0xcd	-51
62	0x18	24
63	0xb2	-78
64	0xe2	-30
65	0xc5	-59
66	0xa7	-89
67	0xff	-1
68	0x81	-127
69	0x97	-105
70	0x32	50
71	0x78	120
72	0x87	-121
73	0x57	87
74	0xb3	-77
75	0xc1	-63
76	0x2c	44
77	0x26	38
78	0xdf	-33
79	0x50	80
80	0xe5	-27
81	0x98	-104
82	0x81	-127
83	0xa9	-87
84	0x4e	78
85	0xe1	-31
86	0x0c	12
87	0x34	52
88	0xb9	-71
89	0x02	2
90	0xb7	-73
91	0x76	118
92	0xd9	-39
93	0xf5	-11
94	0x1e	30
95	0x7f	127
96	0x81	-127
97	0xf6	-10
98	0x66	102
99	0x15	21
100	0x7f	127
101	0x1a	26
102	0x58	88
103	0x5c	92
104	0xb2	-78
105	0x92	-110
106	0x72	114
107	0x9c	-100
108	0xb6	-74
109	0x0f	15
110	0xcf	-49
111	0x70	112
112	0x81	-127
113	0xd1	-47
114	0x81	-127
115	0x90	-112
116	0x39	57
117	0x7e	126
118	0xd3	-45
119	0xc2	-62
120	0xae	-82
121	0xeb	-21
122	0x88	-120
123	0xec	-20
124	0xd0	-48
125	0x26	38
126	0xe3	-29
127	0xad	-83
128	0xdc	-36
129	0xf0	-16
130	0xc7	-57
131	0x12	18
132	0xb4	-76
133	0x91	-111
134	0x13	19
135	0x67	103
136	0x03	3
137	0x60	96
138	0xbc	-68
139	0x0a	10
140	0x48	72
141	0x7f	127
142	0xed	-19
143	0x7f	127
144	0x5f	95
145	0xf7	-9
146	0x0a	10
147	0x02	2
148	0x64	100
149	0x02	2
150	0x05	5
151	0xfc	-4
152	0xe6	-26
153	0xef	-17
154	0xf1	-15
155	0x7f	127
156	0xee	-18
157	0xfc	-4
158	0x5d	93
159	0x63	99
160	0x94	-108
161	0xe9	-23
162	0x2c	44
163	0x61	97
164	0x5b	91
165	0xe1	-31
166	0x4c	76
167	0x20	32
168	0xd4	-44
169	0x81	-127
170	0x41	65
171	0x97	-105
172	0x81	-127
173	0x09	9
174	0xf2	-14
175	0x51	81
176	0xc4	-60
177	0xdd	-35
178	0xdb	-37
179	0xa0	-96
180	0xcd	-51
181	0x7d	125
182	0xb8	-72
183	0xa1	-95
184	0x4b	75
185	0xe0	-32
186	0x81	-127
187	0xdc	-36
188	0xd1	-47
189	0x51	81
190	0xf8	-8
191	0xb7	-73
192	0x81	-127
193	0xe4	-28
194	0x47	71
195	0x81	-127
196	0x0b	11
197	0xd5	-43
198	0xbe	-66
199	0x2a	42
200	0xf6	-10
201	0xcd	-51
202	0xe0	-32
203	0x2d	45
204	0x54	84
205	0x8c	-116
206	0xbf	-65
207	0x0c	12
208	0xb6	-74
209	0xbe	-66
210	0xaa	-86
211	0x16	22
212	0xc9	-55
213	0xc2	-62
214	0x52	82
215	0xa7	-89
216	0x4d	77
217	0xdc	-36
218	0xe6	-26
219	0x53	83
220	0xc5	-59
221	0xe5	-27
222	0x56	86
223	0xd3	-45
224	0xda	-38
225	0x50	80
226	0x73	115
227	0x81	-127
228	0x39	57
229	0x12	18
230	0x2e	46
231	0x73	115
232	0x2d	45
233	0xd8	-40
234	0x2d	45
235	0xcd	-51
236	0x4e	78
237	0x7f	127
238	0x7f	127
239	0xca	-54
240	0xcf	-49
241	0x1f	31
242	0xc0	-64
243	0xc0	-64
244	0x7f	127
245	0x03	3
246	0xc9	-55
247	0x7f	127
248	0x12	18
249	0xf4	-12
250	0x79	121
251	0xe9	-23
252	0x7c	124
253	0x7f	127
254	0x7d	125
255	0xfe	-2

model_1/separable_conv2d_6/separable_conv2d/ReadVariableOp_1 i1 [64, 1, 1, 64]
0	0x1f	31
1	0x19	25
2	0xf9	-7
3	0x5a	90
4	0x4a	74
5	0x49	73
6	0xe2	-30
7	0xcb	-53
8	0xdd	-35
9	0xfa	-6
10	0xf5	-11
11	0xbd	-67
12	0xf5	-11
13	0x28	40
14	0x0c	12
15	0xd6	-42
16	0xe7	-25
17	0x11	17
18	0x10	16
19	0xe6	-26
20	0x0c	12
21	0x5d	93
22	0x1d	29
23	0xbf	-65
24	0xbf	-65
25	0x04	4
26	0xfd	-3
27	0x01	1
28	0xe3	-29
29	0x37	55
30	0x01	1
31	0xe9	-23
32	0x1a	26
33	0xda	-38
34	0x1f	31
35	0xc5	-59
36	0xcc	-52
37	0x10	16
38	0xe7	-25
39	0x35	53
40	0xd2	-46
41	0x22	34
42	0x17	23
43	0x18	24
44	0xf6	-10
45	0xcb	-53
46	0xc0	-64
47	0xd0	-48
48	0xfc	-4
49	0xfd	-3
50	0x09	9
51	0xfb	-5
52	0xd6	-42
53	0x19	25
54	0x2a	42
55	0xe4	-28
56	0x12	18
57	0x20	32
58	0xf9	-7
59	0x64	100
60	0xf1	-15
61	0x03	3
62	0x7f	127
63	0x0a	10
64	0x33	51
65	0x24	36
66	0x0a	10
67	0xef	-17
68	0x15	21
69	0xf6	-10
70	0xe6	-26
71	0x91	-111
72	0xcf	-49
73	0xc7	-57
74	0xf6	-10
75	0xfb	-5
76	0x2e	46
77	0x02	2
78	0x39	57
79	0xf3	-13
80	0x21	33
81	0xbf	-65
82	0x23	35
83	0x30	48
84	0x0f	15
85	0x1e	30
86	0x07	7
87	0xf9	-7
88	0x17	23
89	0xd8	-40
90	0x40	64
91	0x4f	79
92	0x20	32
93	0x7f	127
94	0xe4	-28
95	0xd8	-40
96	0x53	83
97	0x0a	10
98	0xf5	-11
99	0x03	3
100	0xd9	-39
101	0xef	-17
102	0xc9	-55
103	0x0d	13
104	0xe1	-31
105	0x07	7
106	0x2d	45
107	0xef	-17
108	0xf5	-11
109	0x35	53
110	0xe1	-31
111	0xe7	-25
112	0x15	21
113	0x2c	44
114	0xe7	-25
115	0xfc	-4
116	0x17	23
117	0x24	36
118	0xe7	-25
119	0x06	6
120	0x16	22
121	0x0b	11
122	0xc3	-61
123	0x4b	75
124	0xd9	-39
125	0xf5	-11
126	0xd9	-39
127	0xf8	-8
128	0x7f	127
129	0x2f	47
130	0x49	73
131	0xdf	-33
132	0xdd	-35
133	0x0c	12
134	0xff	-1
135	0xe3	-29
136	0xce	-50
137	0xfa	-6
138	0x28	40
139	0xed	-19
140	0xc7	-57
141	0x35	53
142	0xaa	-86
143	0x5d	93
144	0xfb	-5
145	0x41	65
146	0x64	100
147	0x38	56
148	0xf5	-11
149	0x1c	28
150	0xed	-19
151	0x61	97
152	0x4c	76
153	0xfd	-3
154	0x51	81
155	0xce	-50
156	0x10	16
157	0x07	7
158	0xd7	-41
159	0xf4	-12
160	0xc0	-64
161	0x30	48
162	0x06	6
163	0xee	-18
164	0x9a	-102
165	0x15	21
166	0x0c	12
167	0x92	-110
168	0xd7	-41
169	0xcc	-52
170	0x21	33
171	0x25	37
172	0xf5	-11
173	0xda	-38
174	0x5a	90
175	0x22	34
176	0xfc	-4
177	0xcd	-51
178	0x19	25
179	0x02	2
180	0x59	89
181	0x46	70
182	0xd7	-41
183	0x34	52
184	0x12	18
185	0x27	39
186	0x28	40
187	0xf0	-16
188	0xfd	-3
189	0x1d	29
190	0x21	33
191	0x3c	60
192	0xc4	-60
193	0x10	16
194	0x30	48
195	0xe2	-30
196	0xb5	-75
197	0x45	69
198	0x4c	76
199	0xb3	-77
200	0xf0	-16
201	0x81	-127
202	0xf4	-12
203	0x2a	42
204	0xcd	-51
205	0xfb	-5
206	0x2c	44
207	0xea	-22
208	0x13	19
209	0xee	-18
210	0xf3	-13
211	0x10	16
212	0x3b	59
213	0xb8	-72
214	0x22	34
215	0x33	51
216	0x17	23
217	0x5f	95
218	0xea	-22
219	0xe7	-25
220	0x0b	11
221	0x25	37
222	0xb6	-74
223	0x1d	29
224	0x4b	75
225	0x36	54
226	0x32	50
227	0x13	19
228	0x26	38
229	0x2e	46
230	0x23	35
231	0xef	-17
232	0xf6	-10
233	0x12	18
234	0x32	50
235	0x16	22
236	0x1a	26
237	0xd0	-48
238	0xe6	-26
239	0xd8	-40
240	0xb6	-74
241	0xec	-20
242	0xf9	-7
243	0x9f	-97
244	0x1c	28
245	0xe5	-27
246	0xef	-17
247	0x08	8
248	0xa4	-92
249	0x0c	12
250	0xf8	-8
251	0xa8	-88
252	0xd6	-42
253	0x74	116
254	0xe4	-28
255	0x23	35
